mnist.tflite (tflite, 446972 bytes, 6 tensors)

model/conv2d/Relu;model/conv2d/BiasAdd;model/conv2d/Conv2D;model/conv2d/BiasAdd/ReadVariableOp/resource f4 [32]
0	0xbd88d4d2	-0.06681217
1	0xbcfed9a6	-0.031109642
2	0xb9ece0f0	-0.0004518102
3	0xbce7a823	-0.028278416
4	0xbd0981e8	-0.033571154
5	0xbcab65a4	-0.02092249
6	0xbdc0b58b	-0.094096266
7	0xbec03a8f	-0.37544677
8	0xbebb6c1b	-0.36605915
9	0x3cee7df0	0.029112786
10	0xbdc895ee	-0.09794222
11	0xbe6b3c94	-0.22972327
12	0xbd158ac6	-0.036509298
13	0xbec640f2	-0.38721424
14	0xbe8e981d	-0.27850428
15	0xbd173904	-0.03691961
16	0xbd8e52c3	-0.06949379
17	0xbd4ca2e4	-0.049960032
18	0xbde32f6f	-0.110930316
19	0x3cde0aec	0.027104817
20	0x3d5711b1	0.052507106
21	0xbec377d9	-0.38177374
22	0xbe81792e	-0.25287765
23	0xbe123dae	-0.14281341
24	0xbe689d99	-0.22716369
25	0xbd29c4e7	-0.041447546
26	0xbdf43b96	-0.119254276
27	0xbcd0fd38	-0.02551137
28	0xbda01406	-0.07816319
29	0xbe758ffc	-0.23980707
30	0xbdae31e0	-0.08505607
31	0xbddbc554	-0.10730997

model/conv2d/Relu;model/conv2d/BiasAdd;model/conv2d/Conv2D;model/conv2d/BiasAdd/ReadVariableOp/resource1 f4 [32, 3, 3, 1]
0	0xbaa45dcb	-0.001254016
1	0xb915bdf1	-0.00014280506
2	0x39989231	0.0002910062
3	0xbb549e30	-0.003244292
4	0x3a9116d7	0.0011069429
5	0x3a5ba2ad	0.00083784276
6	0xba4032c5	-0.0007331784
7	0x3a6feb22	0.0009152164
8	0xbb8f7a00	-0.004378557
9	0xbaa136af	-0.0012299622
10	0xbb5cc7f7	-0.0033688524
11	0xba9e7963	-0.001209062
12	0xba314d90	-0.0006763572
13	0x3a5c89d3	0.00084128714
14	0xbae63ba2	-0.0017565379
15	0x3ac2f1e4	0.0014873114
16	0x3aa5e78c	0.0012657507
17	0x3a6a95ce	0.0008948714
18	0xbb5779f1	-0.003287908
19	0xba90a8eb	-0.001103667
20	0xbaefcde1	-0.001829561
21	0x3a0288f4	0.0004979514
22	0x3a30da7f	0.00067464256
23	0xbac773d5	-0.0015217016
24	0x39e873a3	0.00044336644
25	0x3a7fd829	0.00097596884
26	0xb952c4ad	-0.00020100428
27	0xbab559fb	-0.001383602
28	0xbaa74776	-0.0012762386
29	0xbb05e414	-0.0020430135
30	0xbb7176e9	-0.0036844558
31	0x3aaf7349	0.0013385798
32	0xbb04faa0	-0.0020290986
33	0xb940da9f	-0.0001839199
34	0x3a05b4ac	0.00051004696
35	0x3ac208bc	0.0014803628
36	0x3abb4bd6	0.0014289569
37	0x3a56bb80	0.0008191392
38	0x3b303358	0.0026886072
39	0xba5f2c58	-0.00085133826
40	0xb9bace7a	-0.00035630522
41	0xbae52685	-0.0017482793
42	0xbb4089b9	-0.0029378964
43	0xbacc0dc6	-0.001556807
44	0xbadbf35a	-0.0016780898
45	0x3ac420bb	0.0014963368
46	0x388dc534	6.760136e-05
47	0xbb1cf210	-0.0023947991
48	0x3a9fd222	0.0012193362
49	0xba7b716a	-0.000959179
50	0xbb25bb11	-0.0025288502
51	0x3a0bc398	0.0005331575
52	0xbabac621	-0.0014249721
53	0xba3381e8	-0.00068476656
54	0xbad8ee08	-0.0016550431
55	0x3b3ba3ef	0.0028631648
56	0xbb0c1e37	-0.0021380314
57	0xb9de76b4	-0.0004243158
58	0x3b13bf14	0.0022544311
59	0xbb1b887d	-0.0023732476
60	0xbb3f995c	-0.0029235696
61	0xba79044d	-0.0009499237
62	0xb9d8230d	-0.00041224845
63	0x3a9acdfb	0.0011810655
64	0xb927cef4	-0.00016003457
65	0x3ac1dc53	0.0014790393
66	0x390e9ebe	0.00013601311
67	0xbb007a55	-0.0019604166
68	0xb95ef23c	-0.00021261809
69	0xbae5fc1c	-0.0017546448
70	0x3ae3f2a4	0.0017391038
71	0x39b7a28f	0.00035025596
72	0x3ad2651b	0.001605186
73	0xba06b837	-0.00051391445
74	0x3ac48da6	0.0014995828
75	0x39fc8f7b	0.00048172087
76	0xbaed9c8f	-0.0018128323
77	0x3ae9de4e	0.0017842741
78	0xba690ba4	-0.0008889979
79	0x39b49ee4	0.00034450658
80	0xbaa7c3dc	-0.001279946
81	0xbafbfc0c	-0.0019224896
82	0xbb14ac7f	-0.0022685823
83	0xbada927a	-0.0016675733
84	0x39b4c630	0.00034479937
85	0x3a939c52	0.0011261797
86	0xba8dd1b6	-0.0010819945
87	0x3b21750c	0.0024636416
88	0xbabdce0f	-0.0014480966
89	0xbb59065e	-0.0033115367
90	0xba51152d	-0.0007975873
91	0x3b0d86c5	0.0021595221
92	0xbb1bde31	-0.002378356
93	0x3ae62db2	0.0017561226
94	0x39974882	0.00028854987
95	0xbb225d4b	-0.0024774845
96	0xbb88ca1b	-0.0041744835
97	0x3b3d93e2	0.0028927256
98	0x3a515b87	0.0007986356
99	0x3a83cb3e	0.0010055078
100	0xbaa2ad67	-0.0012411297
101	0x3aadb737	0.0013253455
102	0x3981766c	0.00024693029
103	0xba77158a	-0.0009425512
104	0xbb3c6ec8	-0.0028752554
105	0xbb391fa0	-0.002824761
106	0x3967e471	0.00022114978
107	0x3ac38c81	0.0014919193
108	0xb9e6cfa4	-0.00044023723
109	0x3b03c4c4	0.0020106295
110	0xb8835906	-6.263149e-05
111	0xbb353d04	-0.0027654776
112	0x3a01d7e5	0.000495313
113	0x3b386abc	0.002813979
114	0xbae9e4c4	-0.0017844667
115	0xbb4f8a57	-0.003166815
116	0xba4a82c6	-0.0007725175
117	0x3b2798eb	0.0025573324
118	0xbb52966d	-0.0032133118
119	0xbb2afc7a	-0.002609043
120	0x3ab0170f	0.0013434606
121	0xbad1600c	-0.0015974059
122	0x3b0b49dd	0.0021253743
123	0x3ad32af1	0.001611082
124	0x39c584b3	0.00037673637
125	0x3ac2c571	0.0014859868
126	0xb889f4b0	-6.578246e-05
127	0xba44e87a	-0.00075114483
128	0x39fefd6b	0.00048635466
129	0x3a26666b	0.0006347659
130	0xbab05714	-0.0013453686
131	0xba8e8241	-0.0010872559
132	0xba8edeac	-0.0010900102
133	0x39ea28f0	0.0004466246
134	0xb9b7506b	-0.00034964396
135	0x387edeb5	6.076573e-05
136	0x3aca6d33	0.0015443921
137	0xbb087e2d	-0.002082716
138	0xbb5400c0	-0.003234908
139	0xbb0f386d	-0.00218537
140	0x3b131a38	0.0022446048
141	0x3b19e26a	0.00234809
142	0x3a92cd28	0.0011200057
143	0xbb8520bd	-0.0040627406
144	0xbb6ae7dc	-0.0035843765
145	0xbad0c0f6	-0.0015926647
146	0x3b4e2415	0.0031454612
147	0x396dd1f2	0.00022680292
148	0xba4f129a	-0.0007899195
149	0xba7f1983	-0.00097312796
150	0x3a7410c4	0.00093103596
151	0xbb13bd47	-0.0022543238
152	0x39ce6291	0.0003936482
153	0xbae3aadc	-0.0017369646
154	0xb9b1c9e0	-0.0003391048
155	0x3b35e4a0	0.002775468
156	0xbb1dded8	-0.0024089124
157	0x3b00a514	0.0019629644
158	0xb9f62fc0	-0.00046956353
159	0xbae312c1	-0.0017324315
160	0xba83a4a1	-0.001004357
161	0xbb519014	-0.0031976746
162	0x3a24b1e6	0.00062826124
163	0xbad03cab	-0.0015887221
164	0x39b7d161	0.0003506048
165	0xbaad8afb	-0.0013240272
166	0xb986b75b	-0.00025695082
167	0xbb062835	-0.0020470743
168	0x3ace669a	0.001574713
169	0xbb8102b0	-0.003937088
170	0x3b067415	0.0020515968
171	0xbb1e2c2a	-0.002413521
172	0xbb3a8fc8	-0.0028467048
173	0xbb0b509d	-0.0021257766
174	0xbb00f77c	-0.0019678762
175	0x3a0b0aaf	0.0005304021
176	0xb8313fde	-4.225957e-05
177	0xba72dfd6	-0.00092649215
178	0xbaa72a87	-0.0012753763
179	0x3b3ba6de	0.0028633396
180	0x3ada0a13	0.0016635082
181	0x38394540	4.417193e-05
182	0x3a0b7526	0.00053198857
183	0xba524d44	-0.0008022378
184	0xb881a0fc	-6.181185e-05
185	0xbad0e1d0	-0.0015936438
186	0xbb1a734f	-0.0023567264
187	0xbb102abb	-0.0021998126
188	0xbaaf2817	-0.0013363388
189	0x3b381765	0.0028090116
190	0x399f2bc4	0.0003035945
191	0x3a7a0b7e	0.00095384556
192	0xbbaf2d18	-0.0053459518
193	0xba6b1af3	-0.00089685543
194	0x3a411855	0.00073659915
195	0x3b15fa78	0.0022884887
196	0x3a1f8e10	0.00060865376
197	0xba0de1f0	-0.00054123905
198	0xbb06b7d2	-0.0020556343
199	0xba7f0dca	-0.0009729533
200	0x3ad76793	0.0016434066
201	0xbaff45eb	-0.0019475793
202	0x3a472c39	0.0007597837
203	0x3ad65afe	0.0016354022
204	0x3ad9b5e1	0.001660999
205	0x3871e7ff	5.767494e-05
206	0x3a723d96	0.00092407444
207	0xbb1e7a49	-0.0024181774
208	0xbb0c796f	-0.0021434685
209	0x3aa0beda	0.001226391
210	0x3a3f19b7	0.00072899036
211	0x3a93d560	0.0011278801
212	0x38794bf5	5.9436967e-05
213	0x3ae09c69	0.0017136458
214	0xb8d728b0	-0.000102595775
215	0xbaf8b1ee	-0.0018973926
216	0x3a8b0bce	0.0010608376
217	0xbb003ca3	-0.0019567392
218	0xbab6f481	-0.0013958366
219	0xbb10bdd7	-0.002208581
220	0x3b25b073	0.0025282174
221	0xba0734a8	-0.00051576877
222	0x3a1671e5	0.00057390175
223	0xbaa0c05c	-0.0012264359
224	0x3a042694	0.0005041149
225	0xbb438bd9	-0.0029837994
226	0x3a1de33b	0.00060229347
227	0xbb8085f0	-0.0039222166
228	0x376f948c	1.4280096e-05
229	0x3b2776bd	0.0025552951
230	0x3ab7366d	0.0013978012
231	0xbb3988da	-0.002831033
232	0xba98831b	-0.0011635752
233	0xb8839cdd	-6.275785e-05
234	0x3aa6b578	0.0012718877
235	0xbb3f3981	-0.0029178562
236	0x3a9bc833	0.0011885226
237	0xba175a48	-0.0005773646
238	0xbb0c7498	-0.00214318
239	0x3a7ae260	0.00095704757
240	0xba819955	-0.0009887615
241	0x39deb71c	0.00042479567
242	0xbae762a3	-0.0017653297
243	0x3b04ea3a	0.0020281211
244	0x39fa80d8	0.00047779712
245	0xbb444a45	-0.0029951495
246	0x3a8bd55e	0.0010668447
247	0xbb666aca	-0.0035158866
248	0xbab82b82	-0.0014051052
249	0xbb19c79e	-0.0023464928
250	0xba988b62	-0.0011638219
251	0x3af58105	0.0018730467
252	0xbb1418e9	-0.0022597855
253	0xb993f130	-0.00028217724
254	0x3aca78ba	0.0015447356
255	0x3b1e7355	0.002417763

model/conv2d_1/BiasAdd;model/conv2d_1/Conv2D;model/conv2d_1/BiasAdd/ReadVariableOp/resource f4 [64]
0	0x3ca6d109	0.020363348
1	0x3d4c87b3	0.0499341
2	0xbd09989b	-0.0335928
3	0xbd83068c	-0.06397733
4	0xbdb20508	-0.08692366
5	0x3c0291a8	0.0079692975
6	0xbd56be19	-0.052427385
7	0x3c544e71	0.012958155
8	0xbe00ebd8	-0.12589967
9	0xbe2068ae	-0.15664932
10	0xbcfea335	-0.031083683
11	0xbd4671aa	-0.048448242
12	0xbc2d0dc8	-0.010562368
13	0xbdf54f0e	-0.11977969
14	0xbd071920	-0.032982945
15	0xbd7e2a6c	-0.062052175
16	0xbdbdf15d	-0.09274552
17	0xbd92214a	-0.07135256
18	0xbe02326d	-0.12714548
19	0xbdcde1bf	-0.10052823
20	0xbdbbc05b	-0.09167548
21	0xbe04d392	-0.12971333
22	0xbde87460	-0.11350322
23	0xbc8a9911	-0.01691869
24	0xbe318f95	-0.17339928
25	0xbe003c5d	-0.12523027
26	0xbcae1172	-0.021248553
27	0xbc06d697	-0.008229873
28	0xbda4ac31	-0.080406554
29	0xbe214f4d	-0.15752907
30	0xbe02b1ff	-0.12763213
31	0xb98854c4	-0.00026003097
32	0x3e221c43	0.15831093
33	0xbe1caef4	-0.15301114
34	0xbda740af	-0.08166634
35	0xbd7f7782	-0.06236983
36	0xbda178fe	-0.078844056
37	0xbd9edb4b	-0.077566706
38	0xbd210f37	-0.03932115
39	0xbd46d696	-0.04854449
40	0xbddafb5b	-0.106924735
41	0xbda081b2	-0.078372374
42	0x3c10deb7	0.008842162
43	0x3b507004	0.0031805048
44	0xbdd271d2	-0.10275616
45	0x3cd67876	0.026180487
46	0xbdd5dba4	-0.10442284
47	0xbd5feab5	-0.054667193
48	0xbe2717cf	-0.16317676
49	0xbe130c20	-0.14360094
50	0xbdff486e	-0.12464987
51	0xbd91fbc8	-0.071281016
52	0xbe28b286	-0.16474351
53	0xbdac5cac	-0.08416113
54	0xbcb9464c	-0.022616528
55	0xbd5738ef	-0.05254453
56	0xbd7f877b	-0.062385064
57	0xbd273080	-0.040817738
58	0xbd5cb9ac	-0.053888008
59	0xbdced30a	-0.10098846
60	0xbd5c1356	-0.053729378
61	0xbd32397c	-0.043511853
62	0x3c321306	0.010868793
63	0xbba1af96	-0.0049342616

model/conv2d_1/Conv2D f4 [64, 3, 3, 32]
0	0x3d565bd2	0.05233366
1	0x3d85b057	0.06527775
2	0x3c2fcfa9	0.010730662
3	0x3e6085d3	0.2192605
4	0xbda54e32	-0.08071555
5	0xbeb0b5fe	-0.3451385
6	0x3ea86d21	0.3289576
7	0x3dd5c72e	0.10438381
8	0x3d1a9f80	0.037749767
9	0xbebbc813	-0.36676082
10	0x3dd58210	0.10425198
11	0xbab1db5d	-0.0013569404
12	0xbe699b10	-0.22813058
13	0xbe871848	-0.26385713
14	0x3d783476	0.060596906
15	0xbe016bb0	-0.12638736
16	0xbe8a9eb9	-0.2707422
17	0x3d4ea2cd	0.050448228
18	0xbefe1c05	-0.49630752
19	0xbe7862a7	-0.24256383
20	0xbe302fcf	-0.17205738
21	0xbc4e4ee8	-0.012592055
22	0xbede923c	-0.43470943
23	0xbe267f24	-0.16259438
24	0xbe381c1d	-0.17979474
25	0x3e18349b	0.14863817
26	0xbe15b179	-0.14618482
27	0xbe14d219	-0.14533271
28	0xbe210b5a	-0.15726987
29	0xbe1c04fe	-0.1523628
30	0xbe074a7c	-0.13212007
31	0x3e74e726	0.23916301
32	0xbf03ee08	-0.5153508
33	0xbd49d646	-0.049276613
34	0x3cb2304b	0.021751544
35	0xbe0be257	-0.1366056
36	0xbe42d035	-0.19024737
37	0xbd41137d	-0.047137726
38	0xbe39f550	-0.18159986
39	0x3e10befc	0.14135355
40	0x3e2def7b	0.16985886
41	0x3ea78b1b	0.32723317
42	0xbeb70396	-0.35744923
43	0x3e0f5ef9	0.14001073
44	0x3db1ff01	0.08691216
45	0x3e9423b0	0.28933477
46	0xbdc5130d	-0.09622774
47	0x3df63a32	0.120228186
48	0xbea4da00	-0.3219757
49	0xbe8cf769	-0.2753251
50	0x3d8d0f95	0.06887738
51	0xbe14efb0	-0.14544559
52	0xbe7f7e22	-0.2495046
53	0x3e642930	0.22281337
54	0xbf06149a	-0.52375185
55	0xbdde4b95	-0.1085426
56	0x3cc6236b	0.02418681
57	0xbdea3f3d	-0.11437843
58	0x3e4b32a0	0.1984353
59	0xbd833df8	-0.06408304
60	0xbe02cde8	-0.1277386
61	0x3c80e82b	0.015735706
62	0xbecc70e0	-0.39929867
63	0xbe4b20b5	-0.19836695
64	0xbcae3815	-0.021266976
65	0x3c49bca0	0.012313038
66	0xbda73ae4	-0.08165529
67	0xbd4cacdd	-0.049969543
68	0xbf083747	-0.53209347
69	0x3df7fc06	0.121086165
70	0xbd45e409	-0.048313174
71	0xbe937569	-0.28800514
72	0xbdeb1776	-0.11479084
73	0xbdbb81e0	-0.09155631
74	0xbd2bc760	-0.041938186
75	0xbe5b6ffe	-0.2142944
76	0x3c832cbb	0.01601254
77	0xbdace1ae	-0.084414825
78	0x3dc8dbda	0.09807558
79	0xbe45af88	-0.19305241
80	0x3e38b4e2	0.18037751
81	0xbeb328b9	-0.34992006
82	0xbe194c24	-0.14970452
83	0x3da031ff	0.07822036
84	0xbcbc53bd	-0.022989148
85	0xbe17f74f	-0.14840434
86	0x3d3d799c	0.046258554
87	0xbe028e3b	-0.12749569
88	0x3dddfab9	0.10838837
89	0xbe05b1ec	-0.13056153
90	0xbe107857	-0.14108406
91	0xbeb9d441	-0.3629475
92	0x3df27752	0.11839165
93	0x3d98acb1	0.07454813
94	0x3c4cd8d6	0.01250287
95	0x3c96ddad	0.01841625
96	0xbc3b7a7c	-0.011442777
97	0x3de2e80e	0.11079417
98	0x3d442268	0.047884375
99	0x3e395e56	0.18102393
100	0x3ca8532a	0.020547468
101	0xbe37f5ee	-0.17964908
102	0x3db6f044	0.08932546
103	0x3e5035d1	0.2033303
104	0x3cfa7a7c	0.030575983
105	0xbd4df609	-0.050283466
106	0x3d9e7347	0.07736831
107	0x3d1a905f	0.03773534
108	0x3e23c227	0.15992032
109	0xbe825f8b	-0.25463519
110	0x3da18597	0.07886808
111	0x3dc5ee41	0.09664584
112	0x3e5d4aaa	0.21610513
113	0x3db47387	0.088110976
114	0xbd8c043a	-0.06836744
115	0x3da4255b	0.080149375
116	0xbe131bfa	-0.14366141
117	0x3d9fe124	0.07806614
118	0xbe0d9540	-0.13826466
119	0x3d96e454	0.07367769
120	0x3ec6da30	0.3883834
121	0xbcedc554	-0.029024757
122	0x3e240e1f	0.16021012
123	0xbe14f4dc	-0.14546531
124	0xbebf2b70	-0.37337828
125	0x3d12a7f3	0.0358047
126	0xbd2a883c	-0.04163383
127	0x3cad8815	0.021183053
128	0xbdb95e14	-0.09051147
129	0xbdcf69e9	-0.10127623
130	0x3e036a1b	0.12833445
131	0xbe4c2c8b	-0.19938867
132	0xbe9d374f	-0.3070626
133	0x3d634c0a	0.05549244
134	0xbcc0dff0	-0.023544282
135	0x3d6acea2	0.057325967
136	0x3e4a9332	0.19782713
137	0x3e241677	0.16024195
138	0x3d7a8319	0.06116018
139	0xbe557163	-0.20844035
140	0xbe1d7ced	-0.15379687
141	0x3daf932a	0.08572991
142	0xbc60c564	-0.013718937
143	0x3d195f0c	0.03744416
144	0xbe6f18e1	-0.23349334
145	0xbe316ec6	-0.17327413
146	0x3dd3e56f	0.10346495
147	0xbe31836a	-0.17335287
148	0xbe694861	-0.22781517
149	0x3c52eed6	0.012874326
150	0xbee48615	-0.44633546
151	0x3d858b22	0.06520678
152	0xbdd6d100	-0.10489082
153	0xbb28acaf	-0.0025737693
154	0x3b8894c4	0.004168125
155	0xbded9b89	-0.116019316
156	0x3d5bfc6f	0.053707536
157	0x3c634704	0.013871912
158	0xbdb64cd5	-0.08901373
159	0xbe46c413	-0.19410734
160	0xbe82259c	-0.2541932
161	0xbebb68cc	-0.3660339
162	0xbeba3f64	-0.36376488
163	0xbd1b8f05	-0.03797819
164	0xbe84a07b	-0.25903687
165	0x3ea59ab5	0.32344595
166	0xbebe2ed5	-0.37145105
167	0xbe9148cd	-0.28375855
168	0xbe54d01b	-0.20782511
169	0xbe8466ed	-0.25859776
170	0xbea9f1ef	-0.33192393
171	0xbe85dd37	-0.26145336
172	0xbd024726	-0.031806134
173	0xbe4d7343	-0.200635
174	0xbe0fb305	-0.14033134
175	0xbd423069	-0.04740945
176	0x3e31896b	0.17337577
177	0xbe9865a8	-0.29765058
178	0xbe4a2a25	-0.1974264
179	0x3e226a71	0.15860917
180	0x3cb34299	0.021882342
181	0xbe856c56	-0.26059216
182	0x3c9a36a0	0.018824875
183	0xbedd6003	-0.43237314
184	0x3d4dda05	0.050256748
185	0xbddf3c7b	-0.109002076
186	0x3c9bb9b2	0.019009445
187	0xbdd3b343	-0.10336926
188	0xbdc391fb	-0.09549328
189	0x3e39a92e	0.18130943
190	0x3e3c1bfb	0.18370049
191	0xbe1d14f8	-0.1534003
192	0x3e1dff55	0.15429433
193	0x3dd880b8	0.10571426
194	0x3dd1bd05	0.10241131
195	0x3dd44ff5	0.10366813
196	0xbe8d34c5	-0.27579322
197	0xbd9387de	-0.07203649
198	0x3dac39d3	0.084094666
199	0xbe75e84b	-0.24014394
200	0xbda671d9	-0.081271835
201	0xbd883654	-0.06650987
202	0xbd8f9346	-0.07010512
203	0xbf20da51	-0.62833124
204	0xbd231134	-0.039811328
205	0xbde76496	-0.11298482
206	0xbe3c5477	-0.18391596
207	0xbeb5a54d	-0.35477677
208	0x3e44042d	0.19142218
209	0x3e0a9d5a	0.13536587
210	0xbd1f813e	-0.038941614
211	0xbdb853da	-0.090003684
212	0xbeabc556	-0.33548993
213	0xbe01646a	-0.12635961
214	0xbdc1c61d	-0.09461615
215	0x3d831fb1	0.06402529
216	0x3d1142b7	0.035464015
217	0xbac36c83	-0.0014909658
218	0xbe0eea0d	-0.13956471
219	0xbe1b7a6e	-0.15183422
220	0x3e7736ba	0.2414197
221	0xbd4ab9b2	-0.0494935
222	0xbd8d81f4	-0.06909552
223	0xbd528898	-0.051399797
224	0x3d4938a4	0.049126282
225	0xbe7d2bf7	-0.24723803
226	0xbe3ae9f4	-0.18253309
227	0xbe788dfb	-0.24272911
228	0x3cfeacc3	0.031088239
229	0x3e422b45	0.18961819
230	0x3d1b58bc	0.03792642
231	0xbf183d04	-0.594681
232	0xbb6192ee	-0.0034419852
233	0xbcb4e935	-0.022083858
234	0xbe495636	-0.19661793
235	0xbe147170	-0.14496398
236	0xbe912eb9	-0.2835596
237	0x3d9dbcf9	0.07702059
238	0x3d18201b	0.037139993
239	0xbeb33447	-0.35000822
240	0xbc0603c4	-0.008179609
241	0x3ec1f59b	0.37882695
242	0xbd3aaa7d	-0.045572747
243	0xbe5355c5	-0.20638187
244	0x3eaf8e67	0.34288332
245	0xbf0b61cf	-0.5444612
246	0xbf049181	-0.5178452
247	0x3c1f87ac	0.009736937
248	0x3dcc109f	0.09964108
249	0xbeb0675f	-0.34453866
250	0x3e36b38f	0.17841934
251	0x3d8abbf9	0.06774134
252	0x3ed06baf	0.40707156
253	0x3d3e2cac	0.04642932
254	0xbecdc5a8	-0.40189862
255	0xbdd0f149	-0.102022715

model/dense/BiasAdd/ReadVariableOp/resource f4 [10]
0	0xbc05be3c	-0.008163031
1	0x3f0ef5d8	0.5584388
2	0x3e032d4e	0.12810251
3	0xbb4d883c	-0.003136172
4	0xbe475f6f	-0.19469999
5	0x3da8f0f0	0.0824908
6	0xbc2ca951	-0.010538415
7	0x3e84fe43	0.25975236
8	0xbf009299	-0.5022369
9	0xbdd0acbb	-0.10189196

model/dense/MatMul f4 [10, 9216]
0	0xbe864210	-0.26222277
1	0xbc7bbcfb	-0.015364881
2	0xbd25354e	-0.04033404
3	0xbcb5f0b6	-0.022209506
4	0xbe3c32ef	-0.18378805
5	0x3cc5b3dc	0.024133615
6	0xbc611f98	-0.013740443
7	0xbde11105	-0.10989574
8	0xbd386aa6	-0.045023583
9	0xbde1358b	-0.10996541
10	0x3daa3e00	0.08312607
11	0xbe232504	-0.15932089
12	0x3e1700f5	0.14746459
13	0xbd25e8e4	-0.040505305
14	0xbab41d1c	-0.0013741585
15	0xbb14541c	-0.002263314
16	0x3dbf3e68	0.09338075
17	0x3d62a389	0.05533174
18	0xbe3b6943	-0.18301873
19	0xbc8935b5	-0.016749242
20	0x3d1c2a02	0.038126
21	0x3c37ca0c	0.011217605
22	0xbb929390	-0.004473157
23	0x3dcff463	0.10154035
24	0x3ce63fe3	0.028106635
25	0xbd8ea40d	-0.06964884
26	0x3cf56b5b	0.029958418
27	0x3d998792	0.07496561
28	0xbe5b8408	-0.21437085
29	0xbd4f0767	-0.05054417
30	0x3cb83b46	0.022489201
31	0xbbb28cc4	-0.0054489095
32	0x3adc89e5	0.0016825764
33	0x3e083195	0.13300164
34	0xbcdaa223	-0.026688641
35	0xbdb466b4	-0.088086516
36	0xbcdfe905	-0.027332792
37	0x3d82ac85	0.06380562
38	0xbc88ed68	-0.016714767
39	0xbe20ddc5	-0.15709598
40	0xbc7f0787	-0.0155657595
41	0xbdbd8cc1	-0.09255362
42	0xbd3bdd23	-0.04586519
43	0xba869ad1	-0.0010269528
44	0xbcb830e2	-0.022484247
45	0x3d4b93f6	0.049701653
46	0x3b8b2747	0.0042466256
47	0xbe5fb310	-0.2184565
48	0xbbadd48e	-0.0053048795
49	0xbe6a02ba	-0.22852603
50	0xba7c8ddc	-0.0009634176
51	0x3e144768	0.14480364
52	0x3a304b86	0.0006725121
53	0xbd29e331	-0.041476432
54	0x3c82da44	0.015973218
55	0x3c919719	0.017772244
56	0x3c871488	0.016489282
57	0x3e213425	0.15742548
58	0xbe5efa21	-0.21775104
59	0x3d39fd5e	0.045407645
60	0xbc92c645	-0.017916808
61	0xbd394d84	-0.04523994
62	0x3b72becc	0.0037039993
63	0x3d2fbe6e	0.042906217
64	0xbe536ceb	-0.20647018
65	0xbc4cbda1	-0.012496383
66	0xbe456a21	-0.19278766
67	0xbda85f98	-0.08221358
68	0xbe1cc69f	-0.15310143
69	0xbab8d814	-0.0014102482
70	0xbc9568aa	-0.018238384
71	0xbdb2acf3	-0.08724394
72	0xbb95cfc9	-0.004571889
73	0x3db6c5f4	0.08924475
74	0x3da780f9	0.081788965
75	0xbe7c2a7d	-0.24625583
76	0x3e4f622d	0.20252295
77	0xbe4b6808	-0.19863904
78	0xbe4c4715	-0.1994899
79	0xbe068579	-0.13136853
80	0xbd66b16a	-0.05632154
81	0x3b71c102	0.0036888723
82	0x3d266b36	0.040629588
83	0xbe3d54bb	-0.18489353
84	0xbe57ef35	-0.21087344
85	0x3c413a36	0.011793664
86	0x3d3595a7	0.044332173
87	0xbc83a24c	-0.0160686
88	0x3db26d0d	0.08712206
89	0xbd28c14a	-0.04119996
90	0xbc06d9e9	-0.008230665
91	0xbd9a7eaa	-0.075436905
92	0xbe81140d	-0.2521061
93	0xbb43471a	-0.0029797019
94	0xbe920179	-0.2851675
95	0x3c68b478	0.014203183
96	0xbd459bde	-0.04824435
97	0xbe4e6754	-0.20156604
98	0xbe181b65	-0.148542
99	0xbeb51175	-0.3536488
100	0xbe5bb0ee	-0.21454212
101	0x3dbe2f09	0.09286315
102	0x3ce1fc88	0.027586237
103	0xbe8bfb63	-0.2734023
104	0xbe14fdb0	-0.14549899
105	0xbe1d067d	-0.15334506
106	0xbdd01817	-0.10160845
107	0xbbd02a59	-0.0063527045
108	0xbe462585	-0.1935025
109	0x3cb1f18f	0.02172163
110	0x3c7750cc	0.015094947
111	0xbe6bf0c4	-0.23041064
112	0x3c2967af	0.0103396615
113	0x3d54baf8	0.05193612
114	0xbc8576d4	-0.016292013
115	0xbe98215e	-0.29712957
116	0xbce84d1d	-0.028357083
117	0x3c8b3a37	0.016995532
118	0x3cb2e501	0.021837713
119	0x3d9b6d10	0.075891614
120	0x3a42fe00	0.00074383616
121	0xbea215e4	-0.31657326
122	0xbd9da9ea	-0.07698424
123	0x3b3bb088	0.0028639156
124	0xbd6aceab	-0.057326
125	0xbc483dc9	-0.012221762
126	0xbc3ea8e1	-0.011636944
127	0xbd08b31f	-0.03337395
128	0x3d57534c	0.052569672
129	0xbdf85af8	-0.12126726
130	0xbe96e82d	-0.2947401
131	0x3d0c9f37	0.034331527
132	0x3e076089	0.13220419
133	0xbe1c6c69	-0.1527573
134	0x3e1c861c	0.15285534
135	0xbe597dec	-0.21239442
136	0xbd896c74	-0.06710139
137	0x3c489d37	0.012244514
138	0xbdc36a37	-0.09541743
139	0xbe66f0cf	-0.22552799
140	0x3d49e770	0.04929298
141	0x3dee7616	0.11643617
142	0xbd99d587	-0.0751143
143	0xbe1a4e56	-0.15068945
144	0x3dc113f7	0.09427636
145	0x3cd42910	0.025898486
146	0x3cefd48c	0.029276155
147	0xbe0774a5	-0.1322809
148	0x3e0a633b	0.13514416
149	0xbd8b3658	-0.067974746
150	0xbc5b9188	-0.013401397
151	0x3d9c6c15	0.076378025
152	0xbd5ae122	-0.05343736
153	0xbb2c5255	-0.002629419
154	0xbd22daff	-0.039759632
155	0xbd8ebd6e	-0.069697246
156	0x3da88687	0.08228784
157	0xbd6072f2	-0.05479712
158	0xbebabf92	-0.36474282
159	0x3de74352	0.11292137
160	0xbdb1fc32	-0.086906806
161	0x3dcb0f2c	0.09915003
162	0xbd339e10	-0.043851912
163	0xbdc4bb7c	-0.09606072
164	0x3cd726b9	0.026263582
165	0xbe014974	-0.12625676
166	0x3e25aa79	0.16178311
167	0xbd4522b9	-0.048128817
168	0xbe8dbd2c	-0.2768339
169	0xbe2f906e	-0.1714494
170	0xbe29f60c	-0.16597766
171	0xbd0aab50	-0.033854783
172	0xbe3265b1	-0.17421605
173	0xbe66b21b	-0.2252888
174	0x3cd71537	0.026255233
175	0x3e1a2e94	0.1505683
176	0xbd500835	-0.050789077
177	0x3af0262d	0.0018321924
178	0xbbd1350b	-0.006384497
179	0xbeace6aa	-0.33769733
180	0xbd17cf7d	-0.03706311
181	0x3d0480a5	0.032349247
182	0xbdc4b343	-0.09604504
183	0x3db4633a	0.088079885
184	0xbca47c18	-0.020078704
185	0xbddc627a	-0.107609704
186	0xbdab2df7	-0.083583765
187	0xbc35fe4d	-0.011107993
188	0xbe3a5a37	-0.18198477
189	0xbd8deab9	-0.069295354
190	0xbe03ca83	-0.12870221
191	0xbe61f34c	-0.22065467
192	0x3cfdddc6	0.030989539
193	0xbde81997	-0.11333006
194	0xbdbdb34c	-0.09262714
195	0xbd7f93f9	-0.062396977
196	0xbe83f917	-0.25775978
197	0xbe36ad3c	-0.17839521
198	0xbe2527cf	-0.16128467
199	0xbe3e7555	-0.18599446
200	0xbcf29d3d	-0.029615993
201	0xbcad69e7	-0.021168662
202	0xbe291375	-0.16511329
203	0xbe925c63	-0.2858611
204	0xbd877e0e	-0.0661584
205	0xbd7cdb29	-0.061732445
206	0xbe068171	-0.13135315
207	0xbe520c85	-0.20512588
208	0xbd090782	-0.033454426
209	0xbdbdadfb	-0.092617
210	0xbe58c382	-0.2116833
211	0xbe64a72e	-0.22329399
212	0x3e1162f3	0.14197902
213	0xbe32435d	-0.1740851
214	0xbe86209c	-0.26196754
215	0xbe86a296	-0.26295918
216	0xbe567d92	-0.20946339
217	0x3cb04a8e	0.021519925
218	0xbd3603b7	-0.044437137
219	0xbe0c4388	-0.13697636
220	0xbd0f65c8	-0.035009176
221	0xbdba4f2d	-0.09097133
222	0xbea6d567	-0.32584688
223	0xbe430810	-0.19046044
224	0xbc93e388	-0.018052831
225	0xbbe18ef8	-0.0068834983
226	0xbe73a525	-0.23793466
227	0xbe14f035	-0.14544757
228	0x3e1a0b37	0.1504334
229	0xbe3264fd	-0.17421336
230	0xbd7bb0e4	-0.061447993
231	0xbdc3857d	-0.09546945
232	0xbdf31eb4	-0.118710905
233	0x3d9c7de8	0.07641202
234	0xbe99934e	-0.29995197
235	0x3d5c6d0f	0.053814944
236	0xbd11f47b	-0.035633545
237	0x3cb3a0dc	0.02192729
238	0xbdd20379	-0.102545686
239	0xbcba462b	-0.022738537
240	0xbb5fb538	-0.0034135114
241	0x3cc9203b	0.024551501
242	0xbdbccce9	-0.09218771
243	0xbdee0e1c	-0.11623785
244	0xb96d3a86	-0.00022623883
245	0xbd6531ea	-0.055955805
246	0xbd80bfec	-0.06286606
247	0xbdf8832e	-0.121343955
248	0xbaba1730	-0.0014197584
249	0x3dbe694b	0.09297427
250	0xbe229c0d	-0.15879841
251	0x3d8e6aa6	0.06953935
252	0xbd701784	-0.058616176
253	0xbeb0ef7a	-0.34557706
254	0xbe467497	-0.19380413
255	0x3d800412	0.06250776
